…
2022-06-30 13:31:06 | INFO | fairseq.tasks.image_multimodal_translation | [de] dictionary: 9712 types
2022-06-30 13:31:06 | INFO | fairseq.data.data_utils | loaded 1014 examples from: data-bin/multi30k.en-de/valid.en-de.en
2022-06-30 13:31:06 | INFO | fairseq.data.data_utils | loaded 1014 examples from: data-bin/multi30k.en-de/valid.en-de.de
2022-06-30 13:31:06 | INFO | fairseq.tasks.image_multimodal_translation | data-bin/multi30k.en-de valid en-de 1014 examples
2022-06-30 13:31:08 | INFO | fairseq_cli.train | TransformerModel(
  (encoder): TransformerEncoder(
    (dropout_module): FairseqDropout()
    (embed_tokens): Embedding(9712, 128, padding_idx=1)
    (embed_positions): SinusoidalPositionalEmbedding()
    (layers): ModuleList(
      (0): TransformerEncoderLayer(
        (self_attn): MultiheadAttention(
          (dropout_module): FairseqDropout()
          (k_proj): Linear(in_features=128, out_features=128, bias=True)
          (v_proj): Linear(in_features=128, out_features=128, bias=True)
          (q_proj): Linear(in_features=128, out_features=128, bias=True)
          (out_proj): Linear(in_features=128, out_features=128, bias=True)
        )
        (self_attn_layer_norm): LayerNorm((128,), eps=1e-05, elementwise_affine=True)
        (dropout_module): FairseqDropout()
        (activation_dropout_module): FairseqDropout()
        (fc1): Linear(in_features=128, out_features=256, bias=True)
        (fc2): Linear(in_features=256, out_features=128, bias=True)
        (final_layer_norm): LayerNorm((128,), eps=1e-05, elementwise_affine=True)
      )
      (1): TransformerEncoderLayer(
        (self_attn): MultiheadAttention(
          (dropout_module): FairseqDropout()
          (k_proj): Linear(in_features=128, out_features=128, bias=True)
          (v_proj): Linear(in_features=128, out_features=128, bias=True)
          (q_proj): Linear(in_features=128, out_features=128, bias=True)
          (out_proj): Linear(in_features=128, out_features=128, bias=True)
        )
        (self_attn_layer_norm): LayerNorm((128,), eps=1e-05, elementwise_affine=True)
        (dropout_module): FairseqDropout()
        (activation_dropout_module): FairseqDropout()
        (fc1): Linear(in_features=128, out_features=256, bias=True)
        (fc2): Linear(in_features=256, out_features=128, bias=True)
        (final_layer_norm): LayerNorm((128,), eps=1e-05, elementwise_affine=True)
      )
      (2): TransformerEncoderLayer(
        (self_attn): MultiheadAttention(
          (dropout_module): FairseqDropout()
          (k_proj): Linear(in_features=128, out_features=128, bias=True)
          (v_proj): Linear(in_features=128, out_features=128, bias=True)
          (q_proj): Linear(in_features=128, out_features=128, bias=True)
          (out_proj): Linear(in_features=128, out_features=128, bias=True)
        )
        (self_attn_layer_norm): LayerNorm((128,), eps=1e-05, elementwise_affine=True)
        (dropout_module): FairseqDropout()
        (activation_dropout_module): FairseqDropout()
        (fc1): Linear(in_features=128, out_features=256, bias=True)
        (fc2): Linear(in_features=256, out_features=128, bias=True)
        (final_layer_norm): LayerNorm((128,), eps=1e-05, elementwise_affine=True)
      )
      (3): TransformerEncoderLayer(
        (self_attn): MultiheadAttention(
          (dropout_module): FairseqDropout()
          (k_proj): Linear(in_features=128, out_features=128, bias=True)
          (v_proj): Linear(in_features=128, out_features=128, bias=True)
          (q_proj): Linear(in_features=128, out_features=128, bias=True)
          (out_proj): Linear(in_features=128, out_features=128, bias=True)
        )
        (self_attn_layer_norm): LayerNorm((128,), eps=1e-05, elementwise_affine=True)
        (dropout_module): FairseqDropout()
        (activation_dropout_module): FairseqDropout()
        (fc1): Linear(in_features=128, out_features=256, bias=True)
        (fc2): Linear(in_features=256, out_features=128, bias=True)
        (final_layer_norm): LayerNorm((128,), eps=1e-05, elementwise_affine=True)
      )
    )
    (selective_attns): ModuleList(
      (0): SelectiveAttention(
        (q_proj): Linear(in_features=128, out_features=128, bias=True)
        (k_proj): Linear(in_features=768, out_features=128, bias=True)
        (v_proj): Linear(in_features=768, out_features=128, bias=True)
        (attn_drop): Dropout(p=0.1, inplace=False)
        (proj): Linear(in_features=128, out_features=128, bias=True)
      )
    )
    (gate_denses): ModuleList(
      (0): Linear(in_features=256, out_features=128, bias=True)
    )
    (image_dropout_module): FairseqDropout()
    (text_dropout_module): FairseqDropout()
    (image_pre_norm_module): Identity()
  )
  (decoder): TransformerDecoder(
    (dropout_module): FairseqDropout()
    (embed_tokens): Embedding(9712, 128, padding_idx=1)
    (embed_positions): SinusoidalPositionalEmbedding()
    (layers): ModuleList(
      (0): TransformerDecoderLayer(
        (dropout_module): FairseqDropout()
        (self_attn): MultiheadAttention(
          (dropout_module): FairseqDropout()
          (k_proj): Linear(in_features=128, out_features=128, bias=True)
          (v_proj): Linear(in_features=128, out_features=128, bias=True)
          (q_proj): Linear(in_features=128, out_features=128, bias=True)
          (out_proj): Linear(in_features=128, out_features=128, bias=True)
        )
        (activation_dropout_module): FairseqDropout()
        (self_attn_layer_norm): LayerNorm((128,), eps=1e-05, elementwise_affine=True)
        (encoder_attn): MultiheadAttention(
          (dropout_module): FairseqDropout()
          (k_proj): Linear(in_features=128, out_features=128, bias=True)
          (v_proj): Linear(in_features=128, out_features=128, bias=True)
          (q_proj): Linear(in_features=128, out_features=128, bias=True)
          (out_proj): Linear(in_features=128, out_features=128, bias=True)
        )
        (encoder_attn_layer_norm): LayerNorm((128,), eps=1e-05, elementwise_affine=True)
        (fc1): Linear(in_features=128, out_features=256, bias=True)
        (fc2): Linear(in_features=256, out_features=128, bias=True)
        (final_layer_norm): LayerNorm((128,), eps=1e-05, elementwise_affine=True)
      )
      (1): TransformerDecoderLayer(
        (dropout_module): FairseqDropout()
        (self_attn): MultiheadAttention(
          (dropout_module): FairseqDropout()
          (k_proj): Linear(in_features=128, out_features=128, bias=True)
          (v_proj): Linear(in_features=128, out_features=128, bias=True)
          (q_proj): Linear(in_features=128, out_features=128, bias=True)
          (out_proj): Linear(in_features=128, out_features=128, bias=True)
        )
        (activation_dropout_module): FairseqDropout()
        (self_attn_layer_norm): LayerNorm((128,), eps=1e-05, elementwise_affine=True)
        (encoder_attn): MultiheadAttention(
          (dropout_module): FairseqDropout()
          (k_proj): Linear(in_features=128, out_features=128, bias=True)
          (v_proj): Linear(in_features=128, out_features=128, bias=True)
          (q_proj): Linear(in_features=128, out_features=128, bias=True)
          (out_proj): Linear(in_features=128, out_features=128, bias=True)
        )
        (encoder_attn_layer_norm): LayerNorm((128,), eps=1e-05, elementwise_affine=True)
        (fc1): Linear(in_features=128, out_features=256, bias=True)
        (fc2): Linear(in_features=256, out_features=128, bias=True)
        (final_layer_norm): LayerNorm((128,), eps=1e-05, elementwise_affine=True)
      )
      (2): TransformerDecoderLayer(
        (dropout_module): FairseqDropout()
        (self_attn): MultiheadAttention(
          (dropout_module): FairseqDropout()
          (k_proj): Linear(in_features=128, out_features=128, bias=True)
          (v_proj): Linear(in_features=128, out_features=128, bias=True)
          (q_proj): Linear(in_features=128, out_features=128, bias=True)
          (out_proj): Linear(in_features=128, out_features=128, bias=True)
        )
        (activation_dropout_module): FairseqDropout()
        (self_attn_layer_norm): LayerNorm((128,), eps=1e-05, elementwise_affine=True)
        (encoder_attn): MultiheadAttention(
          (dropout_module): FairseqDropout()
          (k_proj): Linear(in_features=128, out_features=128, bias=True)
          (v_proj): Linear(in_features=128, out_features=128, bias=True)
          (q_proj): Linear(in_features=128, out_features=128, bias=True)
          (out_proj): Linear(in_features=128, out_features=128, bias=True)
        )
        (encoder_attn_layer_norm): LayerNorm((128,), eps=1e-05, elementwise_affine=True)
        (fc1): Linear(in_features=128, out_features=256, bias=True)
        (fc2): Linear(in_features=256, out_features=128, bias=True)
        (final_layer_norm): LayerNorm((128,), eps=1e-05, elementwise_affine=True)
      )
      (3): TransformerDecoderLayer(
        (dropout_module): FairseqDropout()
        (self_attn): MultiheadAttention(
          (dropout_module): FairseqDropout()
          (k_proj): Linear(in_features=128, out_features=128, bias=True)
          (v_proj): Linear(in_features=128, out_features=128, bias=True)
          (q_proj): Linear(in_features=128, out_features=128, bias=True)
          (out_proj): Linear(in_features=128, out_features=128, bias=True)
        )
        (activation_dropout_module): FairseqDropout()
        (self_attn_layer_norm): LayerNorm((128,), eps=1e-05, elementwise_affine=True)
        (encoder_attn): MultiheadAttention(
          (dropout_module): FairseqDropout()
          (k_proj): Linear(in_features=128, out_features=128, bias=True)
          (v_proj): Linear(in_features=128, out_features=128, bias=True)
          (q_proj): Linear(in_features=128, out_features=128, bias=True)
          (out_proj): Linear(in_features=128, out_features=128, bias=True)
        )
        (encoder_attn_layer_norm): LayerNorm((128,), eps=1e-05, elementwise_affine=True)
        (fc1): Linear(in_features=128, out_features=256, bias=True)
        (fc2): Linear(in_features=256, out_features=128, bias=True)
        (final_layer_norm): LayerNorm((128,), eps=1e-05, elementwise_affine=True)
      )
    )
    (output_projection): Linear(in_features=128, out_features=9712, bias=False)
  )
)
2022-06-30 13:31:08 | INFO | fairseq_cli.train | task: image_mmt (ImageMMTTask)
2022-06-30 13:31:08 | INFO | fairseq_cli.train | model: image_multimodal_transformer_SA_top (TransformerModel)
2022-06-30 13:31:08 | INFO | fairseq_cli.train | criterion: label_smoothed_cross_entropy (LabelSmoothedCrossEntropyCriterion)
2022-06-30 13:31:08 | INFO | fairseq_cli.train | num. model params: 2830976 (num. trained: 2830976)
…
